…
Number of training samples: 139867
Number of validation samples: 60
model_config = beit3_large_patch16_224_language_model_multichoice_prefix
model_config = beit3_large_patch16_224_language_model_multichoice_prefix
Load ckpt from /data/2_data_server/cv-07/dice/2025_samsung_challenge/unilm/beit3/beit3_large_patch16_224.pth
Load state_dict by model_key = model
Weights from pretrained model not used in BEiT3ForNextTokenPrediction: ['mim_head.weight', 'mim_head.bias']
Model = BEiT3ForNextTokenPrediction(
  (beit3): BEiT3(
    (text_embed): TextEmbedding(64010, 1024)
    (vision_embed): VisionEmbedding(
      (proj): Conv2d(3, 1024, kernel_size=(16, 16), stride=(16, 16))
    )
    (encoder): Encoder(
      (dropout_module): Dropout(p=0.0, inplace=False)
      (embed_positions): MutliwayEmbedding(
        (A): PositionalEmbedding(199, 1024)
        (B): PositionalEmbedding(1024, 1024)
      )
      (layers): ModuleList(
        (0): EncoderLayer(
          (self_attn): MultiheadAttention(
            (k_proj): MultiwayNetwork(
              (A): Linear(in_features=1024, out_features=1024, bias=True)
              (B): Linear(in_features=1024, out_features=1024, bias=True)
            )
            (v_proj): MultiwayNetwork(
              (A): Linear(in_features=1024, out_features=1024, bias=True)
              (B): Linear(in_features=1024, out_features=1024, bias=True)
            )
            (q_proj): MultiwayNetwork(
              (A): Linear(in_features=1024, out_features=1024, bias=True)
              (B): Linear(in_features=1024, out_features=1024, bias=True)
            )
            (out_proj): MultiwayNetwork(
              (A): Linear(in_features=1024, out_features=1024, bias=True)
              (B): Linear(in_features=1024, out_features=1024, bias=True)
            )
            (inner_attn_ln): MultiwayNetwork(
              (A): LayerNorm((1024,), eps=1e-05, elementwise_affine=True)
              (B): LayerNorm((1024,), eps=1e-05, elementwise_affine=True)
            )
            (dropout_module): Dropout(p=0.0, inplace=False)
          )
          (self_attn_layer_norm): MultiwayNetwork(
            (A): LayerNorm((1024,), eps=1e-05, elementwise_affine=True)
            (B): LayerNorm((1024,), eps=1e-05, elementwise_affine=True)
          )
          (dropout_module): Dropout(p=0.0, inplace=False)
          (drop_path): DropPath(p=0.0)
          (ffn): MultiwayNetwork(
            (A): FeedForwardNetwork(
              (activation_dropout_module): Dropout(p=0.0, inplace=False)
              (dropout_module): Dropout(p=0.0, inplace=False)
              (fc1): Linear(in_features=1024, out_features=4096, bias=True)
              (fc2): Linear(in_features=4096, out_features=1024, bias=True)
              (ffn_layernorm): LayerNorm((4096,), eps=1e-05, elementwise_affine=True)
            )
            (B): FeedForwardNetwork(
              (activation_dropout_module): Dropout(p=0.0, inplace=False)
              (dropout_module): Dropout(p=0.0, inplace=False)
              (fc1): Linear(in_features=1024, out_features=4096, bias=True)
              (fc2): Linear(in_features=4096, out_features=1024, bias=True)
              (ffn_layernorm): LayerNorm((4096,), eps=1e-05, elementwise_affine=True)
            )
          )
          (final_layer_norm): MultiwayNetwork(
            (A): LayerNorm((1024,), eps=1e-05, elementwise_affine=True)
            (B): LayerNorm((1024,), eps=1e-05, elementwise_affine=True)
          )
        )
        (1): EncoderLayer(
          (self_attn): MultiheadAttention(
            (k_proj): MultiwayNetwork(
              (A): Linear(in_features=1024, out_features=1024, bias=True)
              (B): Linear(in_features=1024, out_features=1024, bias=True)
            )
            (v_proj): MultiwayNetwork(
              (A): Linear(in_features=1024, out_features=1024, bias=True)
              (B): Linear(in_features=1024, out_features=1024, bias=True)
            )
            (q_proj): MultiwayNetwork(
              (A): Linear(in_features=1024, out_features=1024, bias=True)
              (B): Linear(in_features=1024, out_features=1024, bias=True)
            )
            (out_proj): MultiwayNetwork(
              (A): Linear(in_features=1024, out_features=1024, bias=True)
              (B): Linear(in_features=1024, out_features=1024, bias=True)
            )
            (inner_attn_ln): MultiwayNetwork(
              (A): LayerNorm((1024,), eps=1e-05, elementwise_affine=True)
              (B): LayerNorm((1024,), eps=1e-05, elementwise_affine=True)
            )
            (dropout_module): Dropout(p=0.0, inplace=False)
          )
          (self_attn_layer_norm): MultiwayNetwork(
            (A): LayerNorm((1024,), eps=1e-05, elementwise_affine=True)
            (B): LayerNorm((1024,), eps=1e-05, elementwise_affine=True)
          )
          (dropout_module): Dropout(p=0.0, inplace=False)
          (drop_path): DropPath(p=0.004347826086956522)
          (ffn): MultiwayNetwork(
            (A): FeedForwardNetwork(
              (activation_dropout_module): Dropout(p=0.0, inplace=False)
              (dropout_module): Dropout(p=0.0, inplace=False)
              (fc1): Linear(in_features=1024, out_features=4096, bias=True)
              (fc2): Linear(in_features=4096, out_features=1024, bias=True)
              (ffn_layernorm): LayerNorm((4096,), eps=1e-05, elementwise_affine=True)
            )
            (B): FeedForwardNetwork(
              (activation_dropout_module): Dropout(p=0.0, inplace=False)
              (dropout_module): Dropout(p=0.0, inplace=False)
              (fc1): Linear(in_features=1024, out_features=4096, bias=True)
              (fc2): Linear(in_features=4096, out_features=1024, bias=True)
              (ffn_layernorm): LayerNorm((4096,), eps=1e-05, elementwise_affine=True)
            )
          )
          (final_layer_norm): MultiwayNetwork(
            (A): LayerNorm((1024,), eps=1e-05, elementwise_affine=True)
            (B): LayerNorm((1024,), eps=1e-05, elementwise_affine=True)
          )
        )
        (2): EncoderLayer(
          (self_attn): MultiheadAttention(
            (k_proj): MultiwayNetwork(
              (A): Linear(in_features=1024, out_features=1024, bias=True)
              (B): Linear(in_features=1024, out_features=1024, bias=True)
            )
            (v_proj): MultiwayNetwork(
              (A): Linear(in_features=1024, out_features=1024, bias=True)
              (B): Linear(in_features=1024, out_features=1024, bias=True)
            )
            (q_proj): MultiwayNetwork(
              (A): Linear(in_features=1024, out_features=1024, bias=True)
              (B): Linear(in_features=1024, out_features=1024, bias=True)
            )
            (out_proj): MultiwayNetwork(
              (A): Linear(in_features=1024, out_features=1024, bias=True)
              (B): Linear(in_features=1024, out_features=1024, bias=True)
            )
            (inner_attn_ln): MultiwayNetwork(
              (A): LayerNorm((1024,), eps=1e-05, elementwise_affine=True)
              (B): LayerNorm((1024,), eps=1e-05, elementwise_affine=True)
            )
            (dropout_module): Dropout(p=0.0, inplace=False)
          )
          (self_attn_layer_norm): MultiwayNetwork(
            (A): LayerNorm((1024,), eps=1e-05, elementwise_affine=True)
            (B): LayerNorm((1024,), eps=1e-05, elementwise_affine=True)
          )
          (dropout_module): Dropout(p=0.0, inplace=False)
          (drop_path): DropPath(p=0.008695652173913044)
          (ffn): MultiwayNetwork(
            (A): FeedForwardNetwork(
              (activation_dropout_module): Dropout(p=0.0, inplace=False)
              (dropout_module): Dropout(p=0.0, inplace=False)
              (fc1): Linear(in_features=1024, out_features=4096, bias=True)
              (fc2): Linear(in_features=4096, out_features=1024, bias=True)
              (ffn_layernorm): LayerNorm((4096,), eps=1e-05, elementwise_affine=True)
            )
            (B): FeedForwardNetwork(
              (activation_dropout_module): Dropout(p=0.0, inplace=False)
              (dropout_module): Dropout(p=0.0, inplace=False)
              (fc1): Linear(in_features=1024, out_features=4096, bias=True)
              (fc2): Linear(in_features=4096, out_features=1024, bias=True)
              (ffn_layernorm): LayerNorm((4096,), eps=1e-05, elementwise_affine=True)
            )
          )
          (final_layer_norm): MultiwayNetwork(
            (A): LayerNorm((1024,), eps=1e-05, elementwise_affine=True)
            (B): LayerNorm((1024,), eps=1e-05, elementwise_affine=True)
          )
        )
        (3): EncoderLayer(
          (self_attn): MultiheadAttention(
            (k_proj): MultiwayNetwork(
              (A): Linear(in_features=1024, out_features=1024, bias=True)
              (B): Linear(in_features=1024, out_features=1024, bias=True)
            )
            (v_proj): MultiwayNetwork(
              (A): Linear(in_features=1024, out_features=1024, bias=True)
              (B): Linear(in_features=1024, out_features=1024, bias=True)
            )
            (q_proj): MultiwayNetwork(
              (A): Linear(in_features=1024, out_features=1024, bias=True)
              (B): Linear(in_features=1024, out_features=1024, bias=True)
            )
            (out_proj): MultiwayNetwork(
              (A): Linear(in_features=1024, out_features=1024, bias=True)
              (B): Linear(in_features=1024, out_features=1024, bias=True)
            )
            (inner_attn_ln): MultiwayNetwork(
              (A): LayerNorm((1024,), eps=1e-05, elementwise_affine=True)
              (B): LayerNorm((1024,), eps=1e-05, elementwise_affine=True)
            )
            (dropout_module): Dropout(p=0.0, inplace=False)
          )
          (self_attn_layer_norm): MultiwayNetwork(
            (A): LayerNorm((1024,), eps=1e-05, elementwise_affine=True)
            (B): LayerNorm((1024,), eps=1e-05, elementwise_affine=True)
          )
          (dropout_module): Dropout(p=0.0, inplace=False)
          (drop_path): DropPath(p=0.013043478260869566)
          (ffn): MultiwayNetwork(
            (A): FeedForwardNetwork(
              (activation_dropout_module): Dropout(p=0.0, inplace=False)
              (dropout_module): Dropout(p=0.0, inplace=False)
              (fc1): Linear(in_features=1024, out_features=4096, bias=True)
              (fc2): Linear(in_features=4096, out_features=1024, bias=True)
              (ffn_layernorm): LayerNorm((4096,), eps=1e-05, elementwise_affine=True)
            )
            (B): FeedForwardNetwork(
              (activation_dropout_module): Dropout(p=0.0, inplace=False)
              (dropout_module): Dropout(p=0.0, inplace=False)
              (fc1): Linear(in_features=1024, out_features=4096, bias=True)
              (fc2): Linear(in_features=4096, out_features=1024, bias=True)
              (ffn_layernorm): LayerNorm((4096,), eps=1e-05, elementwise_affine=True)
            )
          )
          (final_layer_norm): MultiwayNetwork(
            (A): LayerNorm((1024,), eps=1e-05, elementwise_affine=True)
            (B): LayerNorm((1024,), eps=1e-05, elementwise_affine=True)
          )
        )
        (4): EncoderLayer(
          (self_attn): MultiheadAttention(
            (k_proj): MultiwayNetwork(
              (A): Linear(in_features=1024, out_features=1024, bias=True)
              (B): Linear(in_features=1024, out_features=1024, bias=True)
            )
            (v_proj): MultiwayNetwork(
              (A): Linear(in_features=1024, out_features=1024, bias=True)
              (B): Linear(in_features=1024, out_features=1024, bias=True)
            )
            (q_proj): MultiwayNetwork(
              (A): Linear(in_features=1024, out_features=1024, bias=True)
              (B): Linear(in_features=1024, out_features=1024, bias=True)
            )
            (out_proj): MultiwayNetwork(
              (A): Linear(in_features=1024, out_features=1024, bias=True)
              (B): Linear(in_features=1024, out_features=1024, bias=True)
            )
            (inner_attn_ln): MultiwayNetwork(
              (A): LayerNorm((1024,), eps=1e-05, elementwise_affine=True)
              (B): LayerNorm((1024,), eps=1e-05, elementwise_affine=True)
            )
            (dropout_module): Dropout(p=0.0, inplace=False)
          )
          (self_attn_layer_norm): MultiwayNetwork(
            (A): LayerNorm((1024,), eps=1e-05, elementwise_affine=True)
            (B): LayerNorm((1024,), eps=1e-05, elementwise_affine=True)
          )
          (dropout_module): Dropout(p=0.0, inplace=False)
          (drop_path): DropPath(p=0.017391304347826087)
          (ffn): MultiwayNetwork(
            (A): FeedForwardNetwork(
              (activation_dropout_module): Dropout(p=0.0, inplace=False)
              (dropout_module): Dropout(p=0.0, inplace=False)
              (fc1): Linear(in_features=1024, out_features=4096, bias=True)
              (fc2): Linear(in_features=4096, out_features=1024, bias=True)
              (ffn_layernorm): LayerNorm((4096,), eps=1e-05, elementwise_affine=True)
            )
            (B): FeedForwardNetwork(
              (activation_dropout_module): Dropout(p=0.0, inplace=False)
              (dropout_module): Dropout(p=0.0, inplace=False)
              (fc1): Linear(in_features=1024, out_features=4096, bias=True)
              (fc2): Linear(in_features=4096, out_features=1024, bias=True)
              (ffn_layernorm): LayerNorm((4096,), eps=1e-05, elementwise_affine=True)
            )
          )
          (final_layer_norm): MultiwayNetwork(
            (A): LayerNorm((1024,), eps=1e-05, elementwise_affine=True)
            (B): LayerNorm((1024,), eps=1e-05, elementwise_affine=True)
          )
        )
        (5): EncoderLayer(
          (self_attn): MultiheadAttention(
            (k_proj): MultiwayNetwork(
              (A): Linear(in_features=1024, out_features=1024, bias=True)
              (B): Linear(in_features=1024, out_features=1024, bias=True)
            )
            (v_proj): MultiwayNetwork(
              (A): Linear(in_features=1024, out_features=1024, bias=True)
              (B): Linear(in_features=1024, out_features=1024, bias=True)
            )
            (q_proj): MultiwayNetwork(
              (A): Linear(in_features=1024, out_features=1024, bias=True)
              (B): Linear(in_features=1024, out_features=1024, bias=True)
            )
            (out_proj): MultiwayNetwork(
              (A): Linear(in_features=1024, out_features=1024, bias=True)
              (B): Linear(in_features=1024, out_features=1024, bias=True)
            )
            (inner_attn_ln): MultiwayNetwork(
              (A): LayerNorm((1024,), eps=1e-05, elementwise_affine=True)
              (B): LayerNorm((1024,), eps=1e-05, elementwise_affine=True)
            )
            (dropout_module): Dropout(p=0.0, inplace=False)
          )
          (self_attn_layer_norm): MultiwayNetwork(
            (A): LayerNorm((1024,), eps=1e-05, elementwise_affine=True)
            (B): LayerNorm((1024,), eps=1e-05, elementwise_affine=True)
          )
          (dropout_module): Dropout(p=0.0, inplace=False)
          (drop_path): DropPath(p=0.021739130434782608)
          (ffn): MultiwayNetwork(
            (A): FeedForwardNetwork(
              (activation_dropout_module): Dropout(p=0.0, inplace=False)
              (dropout_module): Dropout(p=0.0, inplace=False)
              (fc1): Linear(in_features=1024, out_features=4096, bias=True)
              (fc2): Linear(in_features=4096, out_features=1024, bias=True)
              (ffn_layernorm): LayerNorm((4096,), eps=1e-05, elementwise_affine=True)
            )
            (B): FeedForwardNetwork(
              (activation_dropout_module): Dropout(p=0.0, inplace=False)
              (dropout_module): Dropout(p=0.0, inplace=False)
              (fc1): Linear(in_features=1024, out_features=4096, bias=True)
              (fc2): Linear(in_features=4096, out_features=1024, bias=True)
              (ffn_layernorm): LayerNorm((4096,), eps=1e-05, elementwise_affine=True)
            )
          )
          (final_layer_norm): MultiwayNetwork(
            (A): LayerNorm((1024,), eps=1e-05, elementwise_affine=True)
            (B): LayerNorm((1024,), eps=1e-05, elementwise_affine=True)
          )
        )
        (6): EncoderLayer(
          (self_attn): MultiheadAttention(
            (k_proj): MultiwayNetwork(
              (A): Linear(in_features=1024, out_features=1024, bias=True)
              (B): Linear(in_features=1024, out_features=1024, bias=True)
            )
            (v_proj): MultiwayNetwork(
              (A): Linear(in_features=1024, out_features=1024, bias=True)
              (B): Linear(in_features=1024, out_features=1024, bias=True)
            )
            (q_proj): MultiwayNetwork(
              (A): Linear(in_features=1024, out_features=1024, bias=True)
              (B): Linear(in_features=1024, out_features=1024, bias=True)
            )
            (out_proj): MultiwayNetwork(
              (A): Linear(in_features=1024, out_features=1024, bias=True)
              (B): Linear(in_features=1024, out_features=1024, bias=True)
            )
            (inner_attn_ln): MultiwayNetwork(
              (A): LayerNorm((1024,), eps=1e-05, elementwise_affine=True)
              (B): LayerNorm((1024,), eps=1e-05, elementwise_affine=True)
            )
            (dropout_module): Dropout(p=0.0, inplace=False)
          )
          (self_attn_layer_norm): MultiwayNetwork(
            (A): LayerNorm((1024,), eps=1e-05, elementwise_affine=True)
            (B): LayerNorm((1024,), eps=1e-05, elementwise_affine=True)
          )
          (dropout_module): Dropout(p=0.0, inplace=False)
          (drop_path): DropPath(p=0.026086956521739132)
          (ffn): MultiwayNetwork(
            (A): FeedForwardNetwork(
              (activation_dropout_module): Dropout(p=0.0, inplace=False)
              (dropout_module): Dropout(p=0.0, inplace=False)
              (fc1): Linear(in_features=1024, out_features=4096, bias=True)
              (fc2): Linear(in_features=4096, out_features=1024, bias=True)
              (ffn_layernorm): LayerNorm((4096,), eps=1e-05, elementwise_affine=True)
            )
            (B): FeedForwardNetwork(
              (activation_dropout_module): Dropout(p=0.0, inplace=False)
              (dropout_module): Dropout(p=0.0, inplace=False)
              (fc1): Linear(in_features=1024, out_features=4096, bias=True)
              (fc2): Linear(in_features=4096, out_features=1024, bias=True)
              (ffn_layernorm): LayerNorm((4096,), eps=1e-05, elementwise_affine=True)
            )
          )
          (final_layer_norm): MultiwayNetwork(
            (A): LayerNorm((1024,), eps=1e-05, elementwise_affine=True)
            (B): LayerNorm((1024,), eps=1e-05, elementwise_affine=True)
          )
        )
        (7): EncoderLayer(
          (self_attn): MultiheadAttention(
            (k_proj): MultiwayNetwork(
              (A): Linear(in_features=1024, out_features=1024, bias=True)
              (B): Linear(in_features=1024, out_features=1024, bias=True)
            )
            (v_proj): MultiwayNetwork(
              (A): Linear(in_features=1024, out_features=1024, bias=True)
              (B): Linear(in_features=1024, out_features=1024, bias=True)
            )
            (q_proj): MultiwayNetwork(
              (A): Linear(in_features=1024, out_features=1024, bias=True)
              (B): Linear(in_features=1024, out_features=1024, bias=True)
            )
            (out_proj): MultiwayNetwork(
              (A): Linear(in_features=1024, out_features=1024, bias=True)
              (B): Linear(in_features=1024, out_features=1024, bias=True)
            )
            (inner_attn_ln): MultiwayNetwork(
              (A): LayerNorm((1024,), eps=1e-05, elementwise_affine=True)
              (B): LayerNorm((1024,), eps=1e-05, elementwise_affine=True)
            )
            (dropout_module): Dropout(p=0.0, inplace=False)
          )
          (self_attn_layer_norm): MultiwayNetwork(
            (A): LayerNorm((1024,), eps=1e-05, elementwise_affine=True)
            (B): LayerNorm((1024,), eps=1e-05, elementwise_affine=True)
          )
          (dropout_module): Dropout(p=0.0, inplace=False)
          (drop_path): DropPath(p=0.030434782608695653)
          (ffn): MultiwayNetwork(
            (A): FeedForwardNetwork(
              (activation_dropout_module): Dropout(p=0.0, inplace=False)
              (dropout_module): Dropout(p=0.0, inplace=False)
              (fc1): Linear(in_features=1024, out_features=4096, bias=True)
              (fc2): Linear(in_features=4096, out_features=1024, bias=True)
              (ffn_layernorm): LayerNorm((4096,), eps=1e-05, elementwise_affine=True)
            )
            (B): FeedForwardNetwork(
              (activation_dropout_module): Dropout(p=0.0, inplace=False)
              (dropout_module): Dropout(p=0.0, inplace=False)
              (fc1): Linear(in_features=1024, out_features=4096, bias=True)
              (fc2): Linear(in_features=4096, out_features=1024, bias=True)
              (ffn_layernorm): LayerNorm((4096,), eps=1e-05, elementwise_affine=True)
            )
          )
          (final_layer_norm): MultiwayNetwork(
            (A): LayerNorm((1024,), eps=1e-05, elementwise_affine=True)
            (B): LayerNorm((1024,), eps=1e-05, elementwise_affine=True)
          )
        )
        (8): EncoderLayer(
          (self_attn): MultiheadAttention(
            (k_proj): MultiwayNetwork(
              (A): Linear(in_features=1024, out_features=1024, bias=True)
              (B): Linear(in_features=1024, out_features=1024, bias=True)
            )
            (v_proj): MultiwayNetwork(
              (A): Linear(in_features=1024, out_features=1024, bias=True)
              (B): Linear(in_features=1024, out_features=1024, bias=True)
            )
            (q_proj): MultiwayNetwork(
              (A): Linear(in_features=1024, out_features=1024, bias=True)
              (B): Linear(in_features=1024, out_features=1024, bias=True)
            )
            (out_proj): MultiwayNetwork(
              (A): Linear(in_features=1024, out_features=1024, bias=True)
              (B): Linear(in_features=1024, out_features=1024, bias=True)
            )
            (inner_attn_ln): MultiwayNetwork(
              (A): LayerNorm((1024,), eps=1e-05, elementwise_affine=True)
              (B): LayerNorm((1024,), eps=1e-05, elementwise_affine=True)
            )
            (dropout_module): Dropout(p=0.0, inplace=False)
          )
          (self_attn_layer_norm): MultiwayNetwork(
            (A): LayerNorm((1024,), eps=1e-05, elementwise_affine=True)
            (B): LayerNorm((1024,), eps=1e-05, elementwise_affine=True)
          )
          (dropout_module): Dropout(p=0.0, inplace=False)
          (drop_path): DropPath(p=0.034782608695652174)
          (ffn): MultiwayNetwork(
            (A): FeedForwardNetwork(
              (activation_dropout_module): Dropout(p=0.0, inplace=False)
              (dropout_module): Dropout(p=0.0, inplace=False)
              (fc1): Linear(in_features=1024, out_features=4096, bias=True)
              (fc2): Linear(in_features=4096, out_features=1024, bias=True)
              (ffn_layernorm): LayerNorm((4096,), eps=1e-05, elementwise_affine=True)
            )
            (B): FeedForwardNetwork(
              (activation_dropout_module): Dropout(p=0.0, inplace=False)
              (dropout_module): Dropout(p=0.0, inplace=False)
              (fc1): Linear(in_features=1024, out_features=4096, bias=True)
              (fc2): Linear(in_features=4096, out_features=1024, bias=True)
              (ffn_layernorm): LayerNorm((4096,), eps=1e-05, elementwise_affine=True)
            )
          )
          (final_layer_norm): MultiwayNetwork(
            (A): LayerNorm((1024,), eps=1e-05, elementwise_affine=True)
            (B): LayerNorm((1024,), eps=1e-05, elementwise_affine=True)
          )
        )
        (9): EncoderLayer(
          (self_attn): MultiheadAttention(
            (k_proj): MultiwayNetwork(
              (A): Linear(in_features=1024, out_features=1024, bias=True)
              (B): Linear(in_features=1024, out_features=1024, bias=True)
            )
            (v_proj): MultiwayNetwork(
              (A): Linear(in_features=1024, out_features=1024, bias=True)
              (B): Linear(in_features=1024, out_features=1024, bias=True)
            )
            (q_proj): MultiwayNetwork(
              (A): Linear(in_features=1024, out_features=1024, bias=True)
              (B): Linear(in_features=1024, out_features=1024, bias=True)
            )
            (out_proj): MultiwayNetwork(
              (A): Linear(in_features=1024, out_features=1024, bias=True)
              (B): Linear(in_features=1024, out_features=1024, bias=True)
            )
            (inner_attn_ln): MultiwayNetwork(
              (A): LayerNorm((1024,), eps=1e-05, elementwise_affine=True)
              (B): LayerNorm((1024,), eps=1e-05, elementwise_affine=True)
            )
            (dropout_module): Dropout(p=0.0, inplace=False)
          )
          (self_attn_layer_norm): MultiwayNetwork(
            (A): LayerNorm((1024,), eps=1e-05, elementwise_affine=True)
            (B): LayerNorm((1024,), eps=1e-05, elementwise_affine=True)
          )
          (dropout_module): Dropout(p=0.0, inplace=False)
          (drop_path): DropPath(p=0.0391304347826087)
          (ffn): MultiwayNetwork(
            (A): FeedForwardNetwork(
              (activation_dropout_module): Dropout(p=0.0, inplace=False)
              (dropout_module): Dropout(p=0.0, inplace=False)
              (fc1): Linear(in_features=1024, out_features=4096, bias=True)
              (fc2): Linear(in_features=4096, out_features=1024, bias=True)
              (ffn_layernorm): LayerNorm((4096,), eps=1e-05, elementwise_affine=True)
            )
            (B): FeedForwardNetwork(
              (activation_dropout_module): Dropout(p=0.0, inplace=False)
              (dropout_module): Dropout(p=0.0, inplace=False)
              (fc1): Linear(in_features=1024, out_features=4096, bias=True)
              (fc2): Linear(in_features=4096, out_features=1024, bias=True)
              (ffn_layernorm): LayerNorm((4096,), eps=1e-05, elementwise_affine=True)
            )
          )
          (final_layer_norm): MultiwayNetwork(
            (A): LayerNorm((1024,), eps=1e-05, elementwise_affine=True)
            (B): LayerNorm((1024,), eps=1e-05, elementwise_affine=True)
          )
        )
        (10): EncoderLayer(
          (self_attn): MultiheadAttention(
            (k_proj): MultiwayNetwork(
              (A): Linear(in_features=1024, out_features=1024, bias=True)
              (B): Linear(in_features=1024, out_features=1024, bias=True)
            )
            (v_proj): MultiwayNetwork(
              (A): Linear(in_features=1024, out_features=1024, bias=True)
              (B): Linear(in_features=1024, out_features=1024, bias=True)
            )
            (q_proj): MultiwayNetwork(
              (A): Linear(in_features=1024, out_features=1024, bias=True)
              (B): Linear(in_features=1024, out_features=1024, bias=True)
            )
            (out_proj): MultiwayNetwork(
              (A): Linear(in_features=1024, out_features=1024, bias=True)
              (B): Linear(in_features=1024, out_features=1024, bias=True)
            )
            (inner_attn_ln): MultiwayNetwork(
              (A): LayerNorm((1024,), eps=1e-05, elementwise_affine=True)
              (B): LayerNorm((1024,), eps=1e-05, elementwise_affine=True)
            )
            (dropout_module): Dropout(p=0.0, inplace=False)
          )
          (self_attn_layer_norm): MultiwayNetwork(
            (A): LayerNorm((1024,), eps=1e-05, elementwise_affine=True)
            (B): LayerNorm((1024,), eps=1e-05, elementwise_affine=True)
          )
          (dropout_module): Dropout(p=0.0, inplace=False)
          (drop_path): DropPath(p=0.043478260869565216)
          (ffn): MultiwayNetwork(
            (A): FeedForwardNetwork(
              (activation_dropout_module): Dropout(p=0.0, inplace=False)
              (dropout_module): Dropout(p=0.0, inplace=False)
              (fc1): Linear(in_features=1024, out_features=4096, bias=True)
              (fc2): Linear(in_features=4096, out_features=1024, bias=True)
              (ffn_layernorm): LayerNorm((4096,), eps=1e-05, elementwise_affine=True)
            )
            (B): FeedForwardNetwork(
              (activation_dropout_module): Dropout(p=0.0, inplace=False)
              (dropout_module): Dropout(p=0.0, inplace=False)
              (fc1): Linear(in_features=1024, out_features=4096, bias=True)
              (fc2): Linear(in_features=4096, out_features=1024, bias=True)
              (ffn_layernorm): LayerNorm((4096,), eps=1e-05, elementwise_affine=True)
            )
          )
          (final_layer_norm): MultiwayNetwork(
            (A): LayerNorm((1024,), eps=1e-05, elementwise_affine=True)
            (B): LayerNorm((1024,), eps=1e-05, elementwise_affine=True)
          )
        )
        (11): EncoderLayer(
          (self_attn): MultiheadAttention(
            (k_proj): MultiwayNetwork(
              (A): Linear(in_features=1024, out_features=1024, bias=True)
              (B): Linear(in_features=1024, out_features=1024, bias=True)
            )
            (v_proj): MultiwayNetwork(
              (A): Linear(in_features=1024, out_features=1024, bias=True)
              (B): Linear(in_features=1024, out_features=1024, bias=True)
            )
            (q_proj): MultiwayNetwork(
              (A): Linear(in_features=1024, out_features=1024, bias=True)
              (B): Linear(in_features=1024, out_features=1024, bias=True)
            )
            (out_proj): MultiwayNetwork(
              (A): Linear(in_features=1024, out_features=1024, bias=True)
              (B): Linear(in_features=1024, out_features=1024, bias=True)
            )
            (inner_attn_ln): MultiwayNetwork(
              (A): LayerNorm((1024,), eps=1e-05, elementwise_affine=True)
              (B): LayerNorm((1024,), eps=1e-05, elementwise_affine=True)
            )
            (dropout_module): Dropout(p=0.0, inplace=False)
          )
          (self_attn_layer_norm): MultiwayNetwork(
            (A): LayerNorm((1024,), eps=1e-05, elementwise_affine=True)
            (B): LayerNorm((1024,), eps=1e-05, elementwise_affine=True)
          )
          (dropout_module): Dropout(p=0.0, inplace=False)
          (drop_path): DropPath(p=0.04782608695652174)
          (ffn): MultiwayNetwork(
            (A): FeedForwardNetwork(
              (activation_dropout_module): Dropout(p=0.0, inplace=False)
              (dropout_module): Dropout(p=0.0, inplace=False)
              (fc1): Linear(in_features=1024, out_features=4096, bias=True)
              (fc2): Linear(in_features=4096, out_features=1024, bias=True)
              (ffn_layernorm): LayerNorm((4096,), eps=1e-05, elementwise_affine=True)
            )
            (B): FeedForwardNetwork(
              (activation_dropout_module): Dropout(p=0.0, inplace=False)
              (dropout_module): Dropout(p=0.0, inplace=False)
              (fc1): Linear(in_features=1024, out_features=4096, bias=True)
              (fc2): Linear(in_features=4096, out_features=1024, bias=True)
              (ffn_layernorm): LayerNorm((4096,), eps=1e-05, elementwise_affine=True)
            )
          )
          (final_layer_norm): MultiwayNetwork(
            (A): LayerNorm((1024,), eps=1e-05, elementwise_affine=True)
            (B): LayerNorm((1024,), eps=1e-05, elementwise_affine=True)
          )
        )
        (12): EncoderLayer(
          (self_attn): MultiheadAttention(
            (k_proj): MultiwayNetwork(
              (A): Linear(in_features=1024, out_features=1024, bias=True)
              (B): Linear(in_features=1024, out_features=1024, bias=True)
            )
            (v_proj): MultiwayNetwork(
              (A): Linear(in_features=1024, out_features=1024, bias=True)
              (B): Linear(in_features=1024, out_features=1024, bias=True)
            )
            (q_proj): MultiwayNetwork(
              (A): Linear(in_features=1024, out_features=1024, bias=True)
              (B): Linear(in_features=1024, out_features=1024, bias=True)
            )
            (out_proj): MultiwayNetwork(
              (A): Linear(in_features=1024, out_features=1024, bias=True)
              (B): Linear(in_features=1024, out_features=1024, bias=True)
            )
            (inner_attn_ln): MultiwayNetwork(
              (A): LayerNorm((1024,), eps=1e-05, elementwise_affine=True)
              (B): LayerNorm((1024,), eps=1e-05, elementwise_affine=True)
            )
            (dropout_module): Dropout(p=0.0, inplace=False)
          )
          (self_attn_layer_norm): MultiwayNetwork(
            (A): LayerNorm((1024,), eps=1e-05, elementwise_affine=True)
            (B): LayerNorm((1024,), eps=1e-05, elementwise_affine=True)
          )
          (dropout_module): Dropout(p=0.0, inplace=False)
          (drop_path): DropPath(p=0.052173913043478265)
          (ffn): MultiwayNetwork(
            (A): FeedForwardNetwork(
              (activation_dropout_module): Dropout(p=0.0, inplace=False)
              (dropout_module): Dropout(p=0.0, inplace=False)
              (fc1): Linear(in_features=1024, out_features=4096, bias=True)
              (fc2): Linear(in_features=4096, out_features=1024, bias=True)
              (ffn_layernorm): LayerNorm((4096,), eps=1e-05, elementwise_affine=True)
            )
            (B): FeedForwardNetwork(
              (activation_dropout_module): Dropout(p=0.0, inplace=False)
              (dropout_module): Dropout(p=0.0, inplace=False)
              (fc1): Linear(in_features=1024, out_features=4096, bias=True)
              (fc2): Linear(in_features=4096, out_features=1024, bias=True)
              (ffn_layernorm): LayerNorm((4096,), eps=1e-05, elementwise_affine=True)
            )
          )
          (final_layer_norm): MultiwayNetwork(
            (A): LayerNorm((1024,), eps=1e-05, elementwise_affine=True)
            (B): LayerNorm((1024,), eps=1e-05, elementwise_affine=True)
          )
        )
        (13): EncoderLayer(
          (self_attn): MultiheadAttention(
            (k_proj): MultiwayNetwork(
              (A): Linear(in_features=1024, out_features=1024, bias=True)
              (B): Linear(in_features=1024, out_features=1024, bias=True)
            )
            (v_proj): MultiwayNetwork(
              (A): Linear(in_features=1024, out_features=1024, bias=True)
              (B): Linear(in_features=1024, out_features=1024, bias=True)
            )
            (q_proj): MultiwayNetwork(
              (A): Linear(in_features=1024, out_features=1024, bias=True)
              (B): Linear(in_features=1024, out_features=1024, bias=True)
            )
            (out_proj): MultiwayNetwork(
              (A): Linear(in_features=1024, out_features=1024, bias=True)
              (B): Linear(in_features=1024, out_features=1024, bias=True)
            )
            (inner_attn_ln): MultiwayNetwork(
              (A): LayerNorm((1024,), eps=1e-05, elementwise_affine=True)
              (B): LayerNorm((1024,), eps=1e-05, elementwise_affine=True)
            )
            (dropout_module): Dropout(p=0.0, inplace=False)
          )
          (self_attn_layer_norm): MultiwayNetwork(
            (A): LayerNorm((1024,), eps=1e-05, elementwise_affine=True)
            (B): LayerNorm((1024,), eps=1e-05, elementwise_affine=True)
          )
          (dropout_module): Dropout(p=0.0, inplace=False)
          (drop_path): DropPath(p=0.05652173913043478)
          (ffn): MultiwayNetwork(
            (A): FeedForwardNetwork(
              (activation_dropout_module): Dropout(p=0.0, inplace=False)
              (dropout_module): Dropout(p=0.0, inplace=False)
              (fc1): Linear(in_features=1024, out_features=4096, bias=True)
              (fc2): Linear(in_features=4096, out_features=1024, bias=True)
              (ffn_layernorm): LayerNorm((4096,), eps=1e-05, elementwise_affine=True)
            )
            (B): FeedForwardNetwork(
              (activation_dropout_module): Dropout(p=0.0, inplace=False)
              (dropout_module): Dropout(p=0.0, inplace=False)
              (fc1): Linear(in_features=1024, out_features=4096, bias=True)
              (fc2): Linear(in_features=4096, out_features=1024, bias=True)
              (ffn_layernorm): LayerNorm((4096,), eps=1e-05, elementwise_affine=True)
            )
          )
          (final_layer_norm): MultiwayNetwork(
            (A): LayerNorm((1024,), eps=1e-05, elementwise_affine=True)
            (B): LayerNorm((1024,), eps=1e-05, elementwise_affine=True)
          )
        )
        (14): EncoderLayer(
          (self_attn): MultiheadAttention(
            (k_proj): MultiwayNetwork(
              (A): Linear(in_features=1024, out_features=1024, bias=True)
              (B): Linear(in_features=1024, out_features=1024, bias=True)
            )
            (v_proj): MultiwayNetwork(
              (A): Linear(in_features=1024, out_features=1024, bias=True)
              (B): Linear(in_features=1024, out_features=1024, bias=True)
            )
            (q_proj): MultiwayNetwork(
              (A): Linear(in_features=1024, out_features=1024, bias=True)
              (B): Linear(in_features=1024, out_features=1024, bias=True)
            )
            (out_proj): MultiwayNetwork(
              (A): Linear(in_features=1024, out_features=1024, bias=True)
              (B): Linear(in_features=1024, out_features=1024, bias=True)
            )
            (inner_attn_ln): MultiwayNetwork(
              (A): LayerNorm((1024,), eps=1e-05, elementwise_affine=True)
              (B): LayerNorm((1024,), eps=1e-05, elementwise_affine=True)
            )
            (dropout_module): Dropout(p=0.0, inplace=False)
          )
          (self_attn_layer_norm): MultiwayNetwork(
            (A): LayerNorm((1024,), eps=1e-05, elementwise_affine=True)
            (B): LayerNorm((1024,), eps=1e-05, elementwise_affine=True)
          )
          (dropout_module): Dropout(p=0.0, inplace=False)
          (drop_path): DropPath(p=0.06086956521739131)
          (ffn): MultiwayNetwork(
            (A): FeedForwardNetwork(
              (activation_dropout_module): Dropout(p=0.0, inplace=False)
              (dropout_module): Dropout(p=0.0, inplace=False)
              (fc1): Linear(in_features=1024, out_features=4096, bias=True)
              (fc2): Linear(in_features=4096, out_features=1024, bias=True)
              (ffn_layernorm): LayerNorm((4096,), eps=1e-05, elementwise_affine=True)
            )
            (B): FeedForwardNetwork(
              (activation_dropout_module): Dropout(p=0.0, inplace=False)
              (dropout_module): Dropout(p=0.0, inplace=False)
              (fc1): Linear(in_features=1024, out_features=4096, bias=True)
              (fc2): Linear(in_features=4096, out_features=1024, bias=True)
              (ffn_layernorm): LayerNorm((4096,), eps=1e-05, elementwise_affine=True)
            )
          )
          (final_layer_norm): MultiwayNetwork(
            (A): LayerNorm((1024,), eps=1e-05, elementwise_affine=True)
            (B): LayerNorm((1024,), eps=1e-05, elementwise_affine=True)
          )
        )
        (15): EncoderLayer(
          (self_attn): MultiheadAttention(
            (k_proj): MultiwayNetwork(
              (A): Linear(in_features=1024, out_features=1024, bias=True)
              (B): Linear(in_features=1024, out_features=1024, bias=True)
            )
            (v_proj): MultiwayNetwork(
              (A): Linear(in_features=1024, out_features=1024, bias=True)
              (B): Linear(in_features=1024, out_features=1024, bias=True)
            )
            (q_proj): MultiwayNetwork(
              (A): Linear(in_features=1024, out_features=1024, bias=True)
              (B): Linear(in_features=1024, out_features=1024, bias=True)
            )
            (out_proj): MultiwayNetwork(
              (A): Linear(in_features=1024, out_features=1024, bias=True)
              (B): Linear(in_features=1024, out_features=1024, bias=True)
            )
            (inner_attn_ln): MultiwayNetwork(
              (A): LayerNorm((1024,), eps=1e-05, elementwise_affine=True)
              (B): LayerNorm((1024,), eps=1e-05, elementwise_affine=True)
            )
            (dropout_module): Dropout(p=0.0, inplace=False)
          )
          (self_attn_layer_norm): MultiwayNetwork(
            (A): LayerNorm((1024,), eps=1e-05, elementwise_affine=True)
            (B): LayerNorm((1024,), eps=1e-05, elementwise_affine=True)
          )
          (dropout_module): Dropout(p=0.0, inplace=False)
          (drop_path): DropPath(p=0.06521739130434782)
          (ffn): MultiwayNetwork(
            (A): FeedForwardNetwork(
              (activation_dropout_module): Dropout(p=0.0, inplace=False)
              (dropout_module): Dropout(p=0.0, inplace=False)
              (fc1): Linear(in_features=1024, out_features=4096, bias=True)
              (fc2): Linear(in_features=4096, out_features=1024, bias=True)
              (ffn_layernorm): LayerNorm((4096,), eps=1e-05, elementwise_affine=True)
            )
            (B): FeedForwardNetwork(
              (activation_dropout_module): Dropout(p=0.0, inplace=False)
              (dropout_module): Dropout(p=0.0, inplace=False)
              (fc1): Linear(in_features=1024, out_features=4096, bias=True)
              (fc2): Linear(in_features=4096, out_features=1024, bias=True)
              (ffn_layernorm): LayerNorm((4096,), eps=1e-05, elementwise_affine=True)
            )
          )
          (final_layer_norm): MultiwayNetwork(
            (A): LayerNorm((1024,), eps=1e-05, elementwise_affine=True)
            (B): LayerNorm((1024,), eps=1e-05, elementwise_affine=True)
          )
        )
        (16): EncoderLayer(
          (self_attn): MultiheadAttention(
            (k_proj): MultiwayNetwork(
              (A): Linear(in_features=1024, out_features=1024, bias=True)
              (B): Linear(in_features=1024, out_features=1024, bias=True)
            )
            (v_proj): MultiwayNetwork(
              (A): Linear(in_features=1024, out_features=1024, bias=True)
              (B): Linear(in_features=1024, out_features=1024, bias=True)
            )
            (q_proj): MultiwayNetwork(
              (A): Linear(in_features=1024, out_features=1024, bias=True)
              (B): Linear(in_features=1024, out_features=1024, bias=True)
            )
            (out_proj): MultiwayNetwork(
              (A): Linear(in_features=1024, out_features=1024, bias=True)
              (B): Linear(in_features=1024, out_features=1024, bias=True)
            )
            (inner_attn_ln): MultiwayNetwork(
              (A): LayerNorm((1024,), eps=1e-05, elementwise_affine=True)
              (B): LayerNorm((1024,), eps=1e-05, elementwise_affine=True)
            )
            (dropout_module): Dropout(p=0.0, inplace=False)
          )
          (self_attn_layer_norm): MultiwayNetwork(
            (A): LayerNorm((1024,), eps=1e-05, elementwise_affine=True)
            (B): LayerNorm((1024,), eps=1e-05, elementwise_affine=True)
          )
          (dropout_module): Dropout(p=0.0, inplace=False)
          (drop_path): DropPath(p=0.06956521739130435)
          (ffn): MultiwayNetwork(
            (A): FeedForwardNetwork(
              (activation_dropout_module): Dropout(p=0.0, inplace=False)
              (dropout_module): Dropout(p=0.0, inplace=False)
              (fc1): Linear(in_features=1024, out_features=4096, bias=True)
              (fc2): Linear(in_features=4096, out_features=1024, bias=True)
              (ffn_layernorm): LayerNorm((4096,), eps=1e-05, elementwise_affine=True)
            )
            (B): FeedForwardNetwork(
              (activation_dropout_module): Dropout(p=0.0, inplace=False)
              (dropout_module): Dropout(p=0.0, inplace=False)
              (fc1): Linear(in_features=1024, out_features=4096, bias=True)
              (fc2): Linear(in_features=4096, out_features=1024, bias=True)
              (ffn_layernorm): LayerNorm((4096,), eps=1e-05, elementwise_affine=True)
            )
          )
          (final_layer_norm): MultiwayNetwork(
            (A): LayerNorm((1024,), eps=1e-05, elementwise_affine=True)
            (B): LayerNorm((1024,), eps=1e-05, elementwise_affine=True)
          )
        )
        (17): EncoderLayer(
          (self_attn): MultiheadAttention(
            (k_proj): MultiwayNetwork(
              (A): Linear(in_features=1024, out_features=1024, bias=True)
              (B): Linear(in_features=1024, out_features=1024, bias=True)
            )
            (v_proj): MultiwayNetwork(
              (A): Linear(in_features=1024, out_features=1024, bias=True)
              (B): Linear(in_features=1024, out_features=1024, bias=True)
            )
            (q_proj): MultiwayNetwork(
              (A): Linear(in_features=1024, out_features=1024, bias=True)
              (B): Linear(in_features=1024, out_features=1024, bias=True)
            )
            (out_proj): MultiwayNetwork(
              (A): Linear(in_features=1024, out_features=1024, bias=True)
              (B): Linear(in_features=1024, out_features=1024, bias=True)
            )
            (inner_attn_ln): MultiwayNetwork(
              (A): LayerNorm((1024,), eps=1e-05, elementwise_affine=True)
              (B): LayerNorm((1024,), eps=1e-05, elementwise_affine=True)
            )
            (dropout_module): Dropout(p=0.0, inplace=False)
          )
          (self_attn_layer_norm): MultiwayNetwork(
            (A): LayerNorm((1024,), eps=1e-05, elementwise_affine=True)
            (B): LayerNorm((1024,), eps=1e-05, elementwise_affine=True)
          )
          (dropout_module): Dropout(p=0.0, inplace=False)
          (drop_path): DropPath(p=0.07391304347826087)
          (ffn): MultiwayNetwork(
            (A): FeedForwardNetwork(
              (activation_dropout_module): Dropout(p=0.0, inplace=False)
              (dropout_module): Dropout(p=0.0, inplace=False)
              (fc1): Linear(in_features=1024, out_features=4096, bias=True)
              (fc2): Linear(in_features=4096, out_features=1024, bias=True)
              (ffn_layernorm): LayerNorm((4096,), eps=1e-05, elementwise_affine=True)
            )
            (B): FeedForwardNetwork(
              (activation_dropout_module): Dropout(p=0.0, inplace=False)
              (dropout_module): Dropout(p=0.0, inplace=False)
              (fc1): Linear(in_features=1024, out_features=4096, bias=True)
              (fc2): Linear(in_features=4096, out_features=1024, bias=True)
              (ffn_layernorm): LayerNorm((4096,), eps=1e-05, elementwise_affine=True)
            )
          )
          (final_layer_norm): MultiwayNetwork(
            (A): LayerNorm((1024,), eps=1e-05, elementwise_affine=True)
            (B): LayerNorm((1024,), eps=1e-05, elementwise_affine=True)
          )
        )
        (18): EncoderLayer(
          (self_attn): MultiheadAttention(
            (k_proj): MultiwayNetwork(
              (A): Linear(in_features=1024, out_features=1024, bias=True)
              (B): Linear(in_features=1024, out_features=1024, bias=True)
            )
            (v_proj): MultiwayNetwork(
              (A): Linear(in_features=1024, out_features=1024, bias=True)
              (B): Linear(in_features=1024, out_features=1024, bias=True)
            )
            (q_proj): MultiwayNetwork(
              (A): Linear(in_features=1024, out_features=1024, bias=True)
              (B): Linear(in_features=1024, out_features=1024, bias=True)
            )
            (out_proj): MultiwayNetwork(
              (A): Linear(in_features=1024, out_features=1024, bias=True)
              (B): Linear(in_features=1024, out_features=1024, bias=True)
            )
            (inner_attn_ln): MultiwayNetwork(
              (A): LayerNorm((1024,), eps=1e-05, elementwise_affine=True)
              (B): LayerNorm((1024,), eps=1e-05, elementwise_affine=True)
            )
            (dropout_module): Dropout(p=0.0, inplace=False)
          )
          (self_attn_layer_norm): MultiwayNetwork(
            (A): LayerNorm((1024,), eps=1e-05, elementwise_affine=True)
            (B): LayerNorm((1024,), eps=1e-05, elementwise_affine=True)
          )
          (dropout_module): Dropout(p=0.0, inplace=False)
          (drop_path): DropPath(p=0.0782608695652174)
          (ffn): MultiwayNetwork(
            (A): FeedForwardNetwork(
              (activation_dropout_module): Dropout(p=0.0, inplace=False)
              (dropout_module): Dropout(p=0.0, inplace=False)
              (fc1): Linear(in_features=1024, out_features=4096, bias=True)
              (fc2): Linear(in_features=4096, out_features=1024, bias=True)
              (ffn_layernorm): LayerNorm((4096,), eps=1e-05, elementwise_affine=True)
            )
            (B): FeedForwardNetwork(
              (activation_dropout_module): Dropout(p=0.0, inplace=False)
              (dropout_module): Dropout(p=0.0, inplace=False)
              (fc1): Linear(in_features=1024, out_features=4096, bias=True)
              (fc2): Linear(in_features=4096, out_features=1024, bias=True)
              (ffn_layernorm): LayerNorm((4096,), eps=1e-05, elementwise_affine=True)
            )
          )
          (final_layer_norm): MultiwayNetwork(
            (A): LayerNorm((1024,), eps=1e-05, elementwise_affine=True)
            (B): LayerNorm((1024,), eps=1e-05, elementwise_affine=True)
          )
        )
        (19): EncoderLayer(
          (self_attn): MultiheadAttention(
            (k_proj): MultiwayNetwork(
              (A): Linear(in_features=1024, out_features=1024, bias=True)
              (B): Linear(in_features=1024, out_features=1024, bias=True)
            )
            (v_proj): MultiwayNetwork(
              (A): Linear(in_features=1024, out_features=1024, bias=True)
              (B): Linear(in_features=1024, out_features=1024, bias=True)
            )
            (q_proj): MultiwayNetwork(
              (A): Linear(in_features=1024, out_features=1024, bias=True)
              (B): Linear(in_features=1024, out_features=1024, bias=True)
            )
            (out_proj): MultiwayNetwork(
              (A): Linear(in_features=1024, out_features=1024, bias=True)
              (B): Linear(in_features=1024, out_features=1024, bias=True)
            )
            (inner_attn_ln): MultiwayNetwork(
              (A): LayerNorm((1024,), eps=1e-05, elementwise_affine=True)
              (B): LayerNorm((1024,), eps=1e-05, elementwise_affine=True)
            )
            (dropout_module): Dropout(p=0.0, inplace=False)
          )
          (self_attn_layer_norm): MultiwayNetwork(
            (A): LayerNorm((1024,), eps=1e-05, elementwise_affine=True)
            (B): LayerNorm((1024,), eps=1e-05, elementwise_affine=True)
          )
          (dropout_module): Dropout(p=0.0, inplace=False)
          (drop_path): DropPath(p=0.08260869565217391)
          (ffn): MultiwayNetwork(
            (A): FeedForwardNetwork(
              (activation_dropout_module): Dropout(p=0.0, inplace=False)
              (dropout_module): Dropout(p=0.0, inplace=False)
              (fc1): Linear(in_features=1024, out_features=4096, bias=True)
              (fc2): Linear(in_features=4096, out_features=1024, bias=True)
              (ffn_layernorm): LayerNorm((4096,), eps=1e-05, elementwise_affine=True)
            )
            (B): FeedForwardNetwork(
              (activation_dropout_module): Dropout(p=0.0, inplace=False)
              (dropout_module): Dropout(p=0.0, inplace=False)
              (fc1): Linear(in_features=1024, out_features=4096, bias=True)
              (fc2): Linear(in_features=4096, out_features=1024, bias=True)
              (ffn_layernorm): LayerNorm((4096,), eps=1e-05, elementwise_affine=True)
            )
          )
          (final_layer_norm): MultiwayNetwork(
            (A): LayerNorm((1024,), eps=1e-05, elementwise_affine=True)
            (B): LayerNorm((1024,), eps=1e-05, elementwise_affine=True)
          )
        )
        (20): EncoderLayer(
          (self_attn): MultiheadAttention(
            (k_proj): MultiwayNetwork(
              (A): Linear(in_features=1024, out_features=1024, bias=True)
              (B): Linear(in_features=1024, out_features=1024, bias=True)
            )
            (v_proj): MultiwayNetwork(
              (A): Linear(in_features=1024, out_features=1024, bias=True)
              (B): Linear(in_features=1024, out_features=1024, bias=True)
            )
            (q_proj): MultiwayNetwork(
              (A): Linear(in_features=1024, out_features=1024, bias=True)
              (B): Linear(in_features=1024, out_features=1024, bias=True)
            )
            (out_proj): MultiwayNetwork(
              (A): Linear(in_features=1024, out_features=1024, bias=True)
              (B): Linear(in_features=1024, out_features=1024, bias=True)
            )
            (inner_attn_ln): MultiwayNetwork(
              (A): LayerNorm((1024,), eps=1e-05, elementwise_affine=True)
              (B): LayerNorm((1024,), eps=1e-05, elementwise_affine=True)
            )
            (dropout_module): Dropout(p=0.0, inplace=False)
          )
          (self_attn_layer_norm): MultiwayNetwork(
            (A): LayerNorm((1024,), eps=1e-05, elementwise_affine=True)
            (B): LayerNorm((1024,), eps=1e-05, elementwise_affine=True)
          )
          (dropout_module): Dropout(p=0.0, inplace=False)
          (drop_path): DropPath(p=0.08695652173913043)
          (ffn): MultiwayNetwork(
            (A): FeedForwardNetwork(
              (activation_dropout_module): Dropout(p=0.0, inplace=False)
              (dropout_module): Dropout(p=0.0, inplace=False)
              (fc1): Linear(in_features=1024, out_features=4096, bias=True)
              (fc2): Linear(in_features=4096, out_features=1024, bias=True)
              (ffn_layernorm): LayerNorm((4096,), eps=1e-05, elementwise_affine=True)
            )
            (B): FeedForwardNetwork(
              (activation_dropout_module): Dropout(p=0.0, inplace=False)
              (dropout_module): Dropout(p=0.0, inplace=False)
              (fc1): Linear(in_features=1024, out_features=4096, bias=True)
              (fc2): Linear(in_features=4096, out_features=1024, bias=True)
              (ffn_layernorm): LayerNorm((4096,), eps=1e-05, elementwise_affine=True)
            )
          )
          (final_layer_norm): MultiwayNetwork(
            (A): LayerNorm((1024,), eps=1e-05, elementwise_affine=True)
            (B): LayerNorm((1024,), eps=1e-05, elementwise_affine=True)
          )
        )
        (21): EncoderLayer(
          (self_attn): MultiheadAttention(
            (k_proj): MultiwayNetwork(
              (A): Linear(in_features=1024, out_features=1024, bias=True)
              (B): Linear(in_features=1024, out_features=1024, bias=True)
            )
            (v_proj): MultiwayNetwork(
              (A): Linear(in_features=1024, out_features=1024, bias=True)
              (B): Linear(in_features=1024, out_features=1024, bias=True)
            )
            (q_proj): MultiwayNetwork(
              (A): Linear(in_features=1024, out_features=1024, bias=True)
              (B): Linear(in_features=1024, out_features=1024, bias=True)
            )
            (out_proj): MultiwayNetwork(
              (A): Linear(in_features=1024, out_features=1024, bias=True)
              (B): Linear(in_features=1024, out_features=1024, bias=True)
            )
            (inner_attn_ln): MultiwayNetwork(
              (A): LayerNorm((1024,), eps=1e-05, elementwise_affine=True)
              (B): LayerNorm((1024,), eps=1e-05, elementwise_affine=True)
            )
            (dropout_module): Dropout(p=0.0, inplace=False)
          )
          (self_attn_layer_norm): MultiwayNetwork(
            (A): LayerNorm((1024,), eps=1e-05, elementwise_affine=True)
            (B): LayerNorm((1024,), eps=1e-05, elementwise_affine=True)
          )
          (dropout_module): Dropout(p=0.0, inplace=False)
          (drop_path): DropPath(p=0.09130434782608696)
          (ffn): MultiwayNetwork(
            (A): FeedForwardNetwork(
              (activation_dropout_module): Dropout(p=0.0, inplace=False)
              (dropout_module): Dropout(p=0.0, inplace=False)
              (fc1): Linear(in_features=1024, out_features=4096, bias=True)
              (fc2): Linear(in_features=4096, out_features=1024, bias=True)
              (ffn_layernorm): LayerNorm((4096,), eps=1e-05, elementwise_affine=True)
            )
            (B): FeedForwardNetwork(
              (activation_dropout_module): Dropout(p=0.0, inplace=False)
              (dropout_module): Dropout(p=0.0, inplace=False)
              (fc1): Linear(in_features=1024, out_features=4096, bias=True)
              (fc2): Linear(in_features=4096, out_features=1024, bias=True)
              (ffn_layernorm): LayerNorm((4096,), eps=1e-05, elementwise_affine=True)
            )
          )
          (final_layer_norm): MultiwayNetwork(
            (A): LayerNorm((1024,), eps=1e-05, elementwise_affine=True)
            (B): LayerNorm((1024,), eps=1e-05, elementwise_affine=True)
          )
        )
        (22): EncoderLayer(
          (self_attn): MultiheadAttention(
            (k_proj): MultiwayNetwork(
              (A): Linear(in_features=1024, out_features=1024, bias=True)
              (B): Linear(in_features=1024, out_features=1024, bias=True)
            )
            (v_proj): MultiwayNetwork(
              (A): Linear(in_features=1024, out_features=1024, bias=True)
              (B): Linear(in_features=1024, out_features=1024, bias=True)
            )
            (q_proj): MultiwayNetwork(
              (A): Linear(in_features=1024, out_features=1024, bias=True)
              (B): Linear(in_features=1024, out_features=1024, bias=True)
            )
            (out_proj): MultiwayNetwork(
              (A): Linear(in_features=1024, out_features=1024, bias=True)
              (B): Linear(in_features=1024, out_features=1024, bias=True)
            )
            (inner_attn_ln): MultiwayNetwork(
              (A): LayerNorm((1024,), eps=1e-05, elementwise_affine=True)
              (B): LayerNorm((1024,), eps=1e-05, elementwise_affine=True)
            )
            (dropout_module): Dropout(p=0.0, inplace=False)
          )
          (self_attn_layer_norm): MultiwayNetwork(
            (A): LayerNorm((1024,), eps=1e-05, elementwise_affine=True)
            (B): LayerNorm((1024,), eps=1e-05, elementwise_affine=True)
          )
          (dropout_module): Dropout(p=0.0, inplace=False)
          (drop_path): DropPath(p=0.09565217391304348)
          (ffn): MultiwayNetwork(
            (A): FeedForwardNetwork(
              (activation_dropout_module): Dropout(p=0.0, inplace=False)
              (dropout_module): Dropout(p=0.0, inplace=False)
              (fc1): Linear(in_features=1024, out_features=4096, bias=True)
              (fc2): Linear(in_features=4096, out_features=1024, bias=True)
              (ffn_layernorm): LayerNorm((4096,), eps=1e-05, elementwise_affine=True)
            )
            (B): FeedForwardNetwork(
              (activation_dropout_module): Dropout(p=0.0, inplace=False)
              (dropout_module): Dropout(p=0.0, inplace=False)
              (fc1): Linear(in_features=1024, out_features=4096, bias=True)
              (fc2): Linear(in_features=4096, out_features=1024, bias=True)
              (ffn_layernorm): LayerNorm((4096,), eps=1e-05, elementwise_affine=True)
            )
          )
          (final_layer_norm): MultiwayNetwork(
            (A): LayerNorm((1024,), eps=1e-05, elementwise_affine=True)
            (B): LayerNorm((1024,), eps=1e-05, elementwise_affine=True)
          )
        )
        (23): EncoderLayer(
          (self_attn): MultiheadAttention(
            (k_proj): MultiwayNetwork(
              (A): Linear(in_features=1024, out_features=1024, bias=True)
              (B): Linear(in_features=1024, out_features=1024, bias=True)
            )
            (v_proj): MultiwayNetwork(
              (A): Linear(in_features=1024, out_features=1024, bias=True)
              (B): Linear(in_features=1024, out_features=1024, bias=True)
            )
            (q_proj): MultiwayNetwork(
              (A): Linear(in_features=1024, out_features=1024, bias=True)
              (B): Linear(in_features=1024, out_features=1024, bias=True)
            )
            (out_proj): MultiwayNetwork(
              (A): Linear(in_features=1024, out_features=1024, bias=True)
              (B): Linear(in_features=1024, out_features=1024, bias=True)
            )
            (inner_attn_ln): MultiwayNetwork(
              (A): LayerNorm((1024,), eps=1e-05, elementwise_affine=True)
              (B): LayerNorm((1024,), eps=1e-05, elementwise_affine=True)
            )
            (dropout_module): Dropout(p=0.0, inplace=False)
          )
          (self_attn_layer_norm): MultiwayNetwork(
            (A): LayerNorm((1024,), eps=1e-05, elementwise_affine=True)
            (B): LayerNorm((1024,), eps=1e-05, elementwise_affine=True)
          )
          (dropout_module): Dropout(p=0.0, inplace=False)
          (drop_path): DropPath(p=0.1)
          (ffn): MultiwayNetwork(
            (A): FeedForwardNetwork(
              (activation_dropout_module): Dropout(p=0.0, inplace=False)
              (dropout_module): Dropout(p=0.0, inplace=False)
              (fc1): Linear(in_features=1024, out_features=4096, bias=True)
              (fc2): Linear(in_features=4096, out_features=1024, bias=True)
              (ffn_layernorm): LayerNorm((4096,), eps=1e-05, elementwise_affine=True)
            )
            (B): FeedForwardNetwork(
              (activation_dropout_module): Dropout(p=0.0, inplace=False)
              (dropout_module): Dropout(p=0.0, inplace=False)
              (fc1): Linear(in_features=1024, out_features=4096, bias=True)
              (fc2): Linear(in_features=4096, out_features=1024, bias=True)
              (ffn_layernorm): LayerNorm((4096,), eps=1e-05, elementwise_affine=True)
            )
          )
          (final_layer_norm): MultiwayNetwork(
            (A): LayerNorm((1024,), eps=1e-05, elementwise_affine=True)
            (B): LayerNorm((1024,), eps=1e-05, elementwise_affine=True)
          )
        )
      )
      (layer_norm): MultiwayNetwork(
        (A): LayerNorm((1024,), eps=1e-05, elementwise_affine=True)
        (B): LayerNorm((1024,), eps=1e-05, elementwise_affine=True)
      )
    )
  )
  (mlm_head): Linear(in_features=1024, out_features=64010, bias=True)
)
number of params: 738312714
LR = 0.00004000
Batch size = 32
Update frequent = 1
Number of training examples = 139867
Number of training training per epoch = 4370
Assigned values = [… Param groups = {
  "layer_0_decay": {
    "weight_decay": 0.05,
    "params": [
      "beit3.text_embed.weight",
      "beit3.vision_embed.mask_token",
      "beit3.vision_embed.proj.weight",
…
